models/densnet/best_model_lr_crossentropy_0.001.pt (torch, 211752 bytes, 88 tensors)

conv0.weight f4 [64, 3, 7, 7]
0.056873437 0.008714874 -0.054057557 0.03909542 -0.04794601 0.05031922 0.0038972842 -0.044048794
0.07978952 -0.003092724 0.022628503 0.02057828 -0.05434226 -0.0005751552 0.047857717 -0.00468512
0.016932424 -0.0702996 -0.003525184 0.05355774 -0.042897243 -0.065623075 0.0026683751 -0.04611229
-0.07135712 -0.016680071 0.034774613 -0.012110932 -0.07723314 -0.054468002 0.0018441896 -0.036117047
0.004935399 -0.071622826 -0.02884337 -0.045219604 0.076793805 0.02920429 -0.030337363 -0.042885613
0.021970954 -0.018495265 -0.027060915 0.019002892 -0.073625 -0.056912124 0.05195731 0.061833594
0.007604787 -0.044025175 0.043783776 -0.0354023 -0.03270733 -0.06855331 -0.03636683 -0.05759847
-0.081452474 0.050739065 0.034203872 -0.0008560715 -0.0025335657 -0.004969881 0.058299027 0.04670412
-0.06250492 -0.03375458 0.07172923 -0.0020075715 0.07013982 0.08015272 0.06468549 0.007386571
-0.03411454 -0.004794533 0.078481935 -0.06475393 0.020559805 0.040355094 -0.03681124 -0.05649342
-0.03380722 0.0047524907 -0.03996401 0.023358742 0.0625733 0.017210597 0.0702443 -0.04604852
0.05367885 -0.07600502 -0.06708742 -0.03091837 0.06113044 0.065321706 -0.077180386 0.0038955242
-0.056378473 -0.025490975 0.051831614 -0.0789383 -0.014177467 0.075987846 0.047747526 0.045015525
0.038626846 0.076989904 -0.06486816 -0.030846141 0.040581238 -0.0112261595 -0.017463138 0.077408426
-0.061087042 0.02769877 -0.038712554 -0.015055513 0.06722215 0.025478981 0.056224283 -0.043685444
-0.05563606 0.0015822396 -0.0033709756 0.05893603 0.010975576 -0.036120478 -0.06823755 -0.06715427
0.041697793 0.061582528 -0.034401372 0.0029080256 0.071381375 -0.026108213 -0.049210962 -0.04487352
0.015243436 0.065153785 -0.032148488 -0.06456746 -0.06648406 -0.04863691 -0.036850777 -0.0013814756
-0.064403035 -0.038976934 0.07279224 -0.024268683 -0.054548167 0.04979846 -0.0111859655 -0.06710747
-0.0066543655 -0.075823 -0.008252986 -0.0357642 -0.07282614 -0.04734957 0.021742877 0.035130914
-0.074846864 -0.015274663 -0.03751903 -0.065125585 0.034939725 -0.034329075 -0.018685862 -0.011173607
0.005507487 -0.077214256 -0.03163905 -0.050569087 0.05020401 0.014149622 0.010380491 0.019336224
0.048538372 -0.0010457251 0.05258945 -0.01885529 0.033410776 0.061125968 -0.04494667 0.050095018
-0.06185998 -0.04144699 -0.047941014 -0.07094111 0.04413289 -0.056871068 0.042587128 0.00032350942
-0.05329088 0.07107992 0.058932923 0.034432296 0.063163 0.007268122 0.03145814 -0.06803615
-0.081949554 -0.074047744 0.056438535 0.06803978 -0.043295234 -0.04413873 0.07634384 -0.062236447
-0.010807219 -0.07376368 -0.023786511 0.06582587 0.047806676 0.00508774 0.070638634 -0.0132719
0.07689748 -0.029378181 -0.04037753 0.030485094 -0.010747871 -0.01332231 0.003770134 0.0031708113
-0.029041536 0.07030644 -0.078306034 -0.030133266 0.04010052 -0.037434004 0.06417823 0.029356277
-0.030093899 0.018105231 0.011577691 0.0684766 0.0156171 0.03406287 0.0434032 0.0156109845
0.020705715 -0.026900621 0.069031775 -0.063960426 0.07725243 -0.055258505 -0.0005340762 0.03892197
-0.074742526 0.028615015 -0.01902999 -0.010216725 0.07820575 0.04922291 -0.021231236 0.06504766
00000000: 1ff4 683d d5c8 0e3c 756b 5dbd 8522 203d
00000010: 0963 44bd 871b 4e3d 9469 7f3b 826c 34bd
00000020: b068 a33d 4caf 4abb 695f b93c c893 a83c
00000030: fd95 5ebd 03c6 16ba 7406 443d a385 99bb
00000040: deb5 8a3c 3df9 8fbd c606 67bb 5c5f 5b3d
00000050: 05b5 2fbd 6465 86bd e8df 2e3b 3ee0 3cbd
00000060: af23 92bd a5a4 88bc d36f 0e3d ee6c 46bc
00000070: 692c 9ebd d719 5fbd bcb8 f13a 78ef 13bd
00000080: 21b9 a13b fdae 92bd ee48 ecbc 3138 39bd
00000090: 1246 9d3d d63d ef3c 1086 f8bc d3a8 2fbd
000000a0: 6efc b33c 6283 97bc daae ddbc f4ab 9b3c
000000b0: b4c8 96bd b01c 69bd 30d1 543d 3945 7d3d
000000c0: 9431 f93b be53 34bd 9e56 333d 0102 11bd
000000d0: 1ff8 05bd ae65 8cbd 63f5 14bd 60ec 6bbd
000000e0: 8ed0 a6bd c4d3 4f3d 5c19 0c3d fc69 60ba
000000f0: 2e0a 26bb 62da a2bb f6ca 6e3d d24c 3f3d
00000100: 9402 80bd 3e42 0abd c6e6 923d 7691 03bb
00000110: 77a5 8f3d 1c27 a43d d479 843d 0c0b f23b
00000120: b0bb 0bbd 751b 9dbb 23bb a03d b59d 84bd
00000130: 096d a83c 624b 253d 62c7 16bd a565 67bd
00000140: 7179 0abd c8ba 9b3b 4db1 23bd d55a bf3c
00000150: 6e26 803d 3dfd 8c3c 3edc 8f3d 5f9d 3cbd
00000160: 5bde 5b3d 85a8 9bbd 2165 89bd 8548 fdbc
00000170: ea63 7a3d 63c7 853d c010 9ebd 0d4c 7f3b
00000180: 1ded 66bd 73d2 d0bc 634d 543d 67aa a1bd
00000190: 9b48 68bc 849f 9b3d e992 433d 3362 383d
000001a0: 2f37 1e3d e2ac 9d3d 99d9 84bd 0cb1 fcbc
000001b0: 8338 263d eded 37bc db0e 8fbc 4f88 9e3d
000001c0: 6836 7abd 88e8 e23c 0e91 1ebd 66ab 76bc
000001d0: c4ab 893d 4cb9 d03c 6f4b 663d 82ef 32bd
000001e0: a3e2 63bd 2763 cf3a 96eb 5cbb e866 713d
000001f0: e7d2 333c 11f3 13bd 21c0 8bbd 2e88 89bd
00000200: 4ecb 2a3d f63d 7c3d 74e8 0cbd 9394 3e3b
00000210: 6630 923d e4e0 d5bc 6f91 49bd 4ccd 37bd
00000220: 9bbf 793c 596f 853d 22ae 03bd f23b 84bd
00000230: cb28 88bd 7f37 47bd d7f0 16bd a112 b5ba
00000240: bde5 83bd 47a6 1fbd 1914 953d 1ecf c6bc
00000250: e66d 5fbd 78f9 4b3d 5745 37bc a46f 89bd
00000260: dd0c dabb 1749 9bbd 8837 07bc 7b7d 12bd
00000270: df25 95bd 9ff1 41bd 1e1e b23c 6fe5 0f3d
00000280: 5049 99bd 9542 7abc 8ead 19bd 9060 85bd
00000290: f51c 0f3d a59c 0cbd 1813 99bc 8111 37bc
000002a0: 2678 b43b 8222 9ebd f397 01bd 8821 4fbd
000002b0: b8a2 4d3d d1d3 673c ef12 2a3c 0067 9e3c
000002c0: 2cd0 463d b610 89ba 0968 573d 6976 9abc
000002d0: bdd9 083d 395f 7a3d 001a 38bd 6f30 4d3d
000002e0: e460 7dbd 52c4 29bd cc5d 44bd 9349 91bd
000002f0: b0c4 343d a3f1 68bd d76f 2e3d b39c a939
00000300: 8a47 5abd 5992 913d a663 713d e108 0d3d
00000310: 9a5b 813d 6d29 ee3b 40da 003d 8956 8bbd
00000320: 2bd5 a7bd 58a6 97bd 182c 673d 7158 8b3d
00000330: 5856 31bd d0ca 34bd 295a 9c3d a5eb 7ebd
00000340: c310 31bc 6a11 97bd eedb c2bc b7cf 863d
00000350: efd0 433d 0eb7 a63b fdaa 903d 6272 59bc
00000360: 6d7c 9d3d 83aa f0bc e962 25bd e0bb f93c
00000370: d717 30bc d145 5abc 5a14 773b 63cd 4f3b
00000380: 84e8 edbc d3fc 8f3d ea5e a0bd 0ada f6bc
00000390: 7140 243d 6654 19bd e06f 833d 937c f03c
000003a0: 7b87 f6bc 6c51 943c 5bb0 3d3c 763d 8c3d
000003b0: ddde 7f3c 8285 0b3d 8ec7 313d 37c5 7f3c
000003c0: 089f a93c b15e dcbc 8860 8d3d affd 82bd
000003d0: 8636 9e3d be56 62bd 3f01 0cba a56c 1f3d
000003e0: 9c12 99bd 096a ea3c c8e4 9bbc 0d64 27bc
000003f0: 562a a03d f69d 493d 21ed adbc b537 853d

norm0.weight f4 [64]
1.0 1.0 1.0 1.0 1.0 1.0 1.0 1.0
1.0 1.0 1.0 1.0 1.0 1.0 1.0 1.0
1.0 1.0 1.0 1.0 1.0 1.0 1.0 1.0
1.0 1.0 1.0 1.0 1.0 1.0 1.0 1.0
1.0 1.0 1.0 1.0 1.0 1.0 1.0 1.0
1.0 1.0 1.0 1.0 1.0 1.0 1.0 1.0
1.0 1.0 1.0 1.0 1.0 1.0 1.0 1.0
1.0 1.0 1.0 1.0 1.0 1.0 1.0 1.0
00000000: 0000 803f 0000 803f 0000 803f 0000 803f
00000010: 0000 803f 0000 803f 0000 803f 0000 803f
00000020: 0000 803f 0000 803f 0000 803f 0000 803f
00000030: 0000 803f 0000 803f 0000 803f 0000 803f
00000040: 0000 803f 0000 803f 0000 803f 0000 803f
00000050: 0000 803f 0000 803f 0000 803f 0000 803f
00000060: 0000 803f 0000 803f 0000 803f 0000 803f
00000070: 0000 803f 0000 803f 0000 803f 0000 803f
00000080: 0000 803f 0000 803f 0000 803f 0000 803f
00000090: 0000 803f 0000 803f 0000 803f 0000 803f
000000a0: 0000 803f 0000 803f 0000 803f 0000 803f
000000b0: 0000 803f 0000 803f 0000 803f 0000 803f
000000c0: 0000 803f 0000 803f 0000 803f 0000 803f
000000d0: 0000 803f 0000 803f 0000 803f 0000 803f
000000e0: 0000 803f 0000 803f 0000 803f 0000 803f
000000f0: 0000 803f 0000 803f 0000 803f 0000 803f

norm0.bias f4 [64]
0.0 0.0 0.0 0.0 0.0 0.0 0.0 0.0
0.0 0.0 0.0 0.0 0.0 0.0 0.0 0.0
0.0 0.0 0.0 0.0 0.0 0.0 0.0 0.0
0.0 0.0 0.0 0.0 0.0 0.0 0.0 0.0
0.0 0.0 0.0 0.0 0.0 0.0 0.0 0.0
0.0 0.0 0.0 0.0 0.0 0.0 0.0 0.0
0.0 0.0 0.0 0.0 0.0 0.0 0.0 0.0
0.0 0.0 0.0 0.0 0.0 0.0 0.0 0.0
00000000: 0000 0000 0000 0000 0000 0000 0000 0000
00000010: 0000 0000 0000 0000 0000 0000 0000 0000
00000020: 0000 0000 0000 0000 0000 0000 0000 0000
00000030: 0000 0000 0000 0000 0000 0000 0000 0000
00000040: 0000 0000 0000 0000 0000 0000 0000 0000
00000050: 0000 0000 0000 0000 0000 0000 0000 0000
00000060: 0000 0000 0000 0000 0000 0000 0000 0000
00000070: 0000 0000 0000 0000 0000 0000 0000 0000
00000080: 0000 0000 0000 0000 0000 0000 0000 0000
00000090: 0000 0000 0000 0000 0000 0000 0000 0000
000000a0: 0000 0000 0000 0000 0000 0000 0000 0000
000000b0: 0000 0000 0000 0000 0000 0000 0000 0000
000000c0: 0000 0000 0000 0000 0000 0000 0000 0000
000000d0: 0000 0000 0000 0000 0000 0000 0000 0000
000000e0: 0000 0000 0000 0000 0000 0000 0000 0000
000000f0: 0000 0000 0000 0000 0000 0000 0000 0000

norm0.running_mean f4 [64]
-0.6811762 -0.53246486 1.1334214 0.64191955 0.3798828 0.048528586 -0.18451911 -0.017937249
1.5322312 0.24155077 0.48256078 0.14914396 -0.05470777 -0.19938813 -0.7893679 1.1139578
-0.391217 0.20343228 -0.80292785 -0.046159238 -0.6109137 1.4712288 -0.6737861 1.893689
-0.5167224 0.54414594 -1.0359476 -0.3132198 0.23470365 -0.18953232 -0.9331565 0.74572814
-0.6252067 0.041718967 -0.37770304 0.37719142 -0.6329003 -0.41123286 -0.6608963 0.08818959
1.4851483 -1.1316938 -1.1699619 -0.17479016 -0.4988914 0.0029207324 -1.4050801 1.0998417
-0.6482583 0.2631007 1.2883184 0.7980975 -0.77254486 0.77995825 -0.578334 0.30371258
-0.03386596 0.06455174 0.046122264 0.7051089 0.12781036 -0.42981452 -0.32419506 0.24355026
00000000: 9061 2ebf 9e4f 08bf f413 913f d754 243f
00000010: 0080 c23e e9c5 463d 94f2 3cbe 23f1 92bc
00000020: 2720 c43f 1659 773e 3512 f73e 32b9 183e
00000030: 4115 60bd 672c 4cbe 0414 4abf 2b96 8e3f
00000040: 984d c8be 8d50 503e ae8c 4dbf 7811 3dbd
00000050: d764 1cbf 3a51 bc3f 3f7d 2cbf 6764 f23f
00000060: eb47 04bf 264d 0b3f ee99 84bf 585e a0be
00000070: 2756 703e c314 42be 58e3 6ebf 0ae8 3e3f
00000080: 8c0d 20bf 82e1 2a3d 4b62 c1be 3c1f c13e
00000090: c105 22bf 1d8d d2be 8030 29bf be9c b43d
000000a0: 5719 be3f 58db 90bf 50c1 95bf 31fc 32be
000000b0: b26e ffbe c269 3f3b aad9 b3bf 9dc7 8c3f
000000c0: 42f4 25bf 23b5 863e 9ee7 a43f 1e50 4c3f
000000d0: 80c5 45bf 58ab 473f b20d 14bf 3780 9b3e
000000e0: 08b7 0abd b433 843d b3ea 3c3d 0482 343f
000000f0: b8e0 023e a610 dcbe e5fc a5be 3d65 793e

norm0.running_var f4 [64]
0.20817798 0.12818158 0.56738263 0.18870264 0.06773396 0.0042046746 0.016989196 0.0021152978
1.0339007 0.029042397 0.106474735 0.01334383 0.0030684147 0.022874951 0.27484417 0.5458714
0.07610538 0.020729935 0.29346722 0.0030159303 0.16504313 0.96004015 0.20169419 1.5845217
0.1226937 0.13457099 0.47745338 0.04713487 0.028033728 0.018360328 0.38449478 0.24685845
0.17452039 0.0036467565 0.06534919 0.065213084 0.18259671 0.07676173 0.19500798 0.005162279
0.97265553 0.56603366 0.60441595 0.01953399 0.11123377 0.00094703847 0.8686419 0.53693247
0.18663312 0.03304369 0.7324271 0.28167677 0.26500192 0.27029496 0.14854862 0.04499844
0.0031691042 0.0058393613 0.0025886362 0.21913643 0.011219322 0.08338988 0.05060567 0.027743345
00000000: 9c2c 553e 0842 033e fd3f 113f 443b 413e
00000010: 1ab8 8a3d 5ec7 893b ed2c 8b3c cfa0 0a3b
00000020: dc56 843f 52ea ed3c 6d0f da3d 14a0 5a3c
00000030: 7517 493b 4064 bb3c 60b8 8c3e 3abe 0b3f
00000040: 23dd 9b3d d3d1 a93c 5641 963e eaa6 453b
00000050: 1101 293e 31c5 753f ec88 4e3e 9bd1 ca3f
00000060: d646 fb3d facc 093e c574 f43e 7e10 413d
00000070: fda6 e53c 6668 963c 80dc c43e 76c8 7c3e
00000080: 79b5 323e 6cfe 6e3b ccd5 853d 708e 853d
00000090: a2fa 3a3e 4135 9d3d 2cb0 473e 5628 a93b
000000a0: f4ff 783f 95e7 103f 01bb 1a3f bf05 a03c
000000b0: 88ce e33d ad42 783a 515f 5e3f 6874 093f
000000c0: c11c 3f3e d258 073d 5880 3b3f f037 903e
000000d0: 55ae 873e 1a64 8a3e 211d 183e 4950 383d
000000e0: bfb0 4f3b 1d58 bf3b 1ca6 293b 4d65 603e
000000f0: 3fd1 373c 50c8 aa3d e447 4f3d 0346 e33c

denseblock1.layers.0.norm1.weight f4 [64]
1.0 1.0 1.0 1.0 1.0 1.0 1.0 1.0
1.0 1.0 1.0 1.0 1.0 1.0 1.0 1.0
1.0 1.0 1.0 1.0 1.0 1.0 1.0 1.0
1.0 1.0 1.0 1.0 1.0 1.0 1.0 1.0
1.0 1.0 1.0 1.0 1.0 1.0 1.0 1.0
1.0 1.0 1.0 1.0 1.0 1.0 1.0 1.0
1.0 1.0 1.0 1.0 1.0 1.0 1.0 1.0
1.0 1.0 1.0 1.0 1.0 1.0 1.0 1.0
00000000: 0000 803f 0000 803f 0000 803f 0000 803f
00000010: 0000 803f 0000 803f 0000 803f 0000 803f
00000020: 0000 803f 0000 803f 0000 803f 0000 803f
00000030: 0000 803f 0000 803f 0000 803f 0000 803f
00000040: 0000 803f 0000 803f 0000 803f 0000 803f
00000050: 0000 803f 0000 803f 0000 803f 0000 803f
00000060: 0000 803f 0000 803f 0000 803f 0000 803f
00000070: 0000 803f 0000 803f 0000 803f 0000 803f
00000080: 0000 803f 0000 803f 0000 803f 0000 803f
00000090: 0000 803f 0000 803f 0000 803f 0000 803f
000000a0: 0000 803f 0000 803f 0000 803f 0000 803f
000000b0: 0000 803f 0000 803f 0000 803f 0000 803f
000000c0: 0000 803f 0000 803f 0000 803f 0000 803f
000000d0: 0000 803f 0000 803f 0000 803f 0000 803f
000000e0: 0000 803f 0000 803f 0000 803f 0000 803f
000000f0: 0000 803f 0000 803f 0000 803f 0000 803f

denseblock1.layers.0.norm1.bias f4 [64]
0.0 0.0 0.0 0.0 0.0 0.0 0.0 0.0
0.0 0.0 0.0 0.0 0.0 0.0 0.0 0.0
0.0 0.0 0.0 0.0 0.0 0.0 0.0 0.0
0.0 0.0 0.0 0.0 0.0 0.0 0.0 0.0
0.0 0.0 0.0 0.0 0.0 0.0 0.0 0.0
0.0 0.0 0.0 0.0 0.0 0.0 0.0 0.0
0.0 0.0 0.0 0.0 0.0 0.0 0.0 0.0
0.0 0.0 0.0 0.0 0.0 0.0 0.0 0.0
00000000: 0000 0000 0000 0000 0000 0000 0000 0000
00000010: 0000 0000 0000 0000 0000 0000 0000 0000
00000020: 0000 0000 0000 0000 0000 0000 0000 0000
00000030: 0000 0000 0000 0000 0000 0000 0000 0000
00000040: 0000 0000 0000 0000 0000 0000 0000 0000
00000050: 0000 0000 0000 0000 0000 0000 0000 0000
00000060: 0000 0000 0000 0000 0000 0000 0000 0000
00000070: 0000 0000 0000 0000 0000 0000 0000 0000
00000080: 0000 0000 0000 0000 0000 0000 0000 0000
00000090: 0000 0000 0000 0000 0000 0000 0000 0000
000000a0: 0000 0000 0000 0000 0000 0000 0000 0000
000000b0: 0000 0000 0000 0000 0000 0000 0000 0000
000000c0: 0000 0000 0000 0000 0000 0000 0000 0000
000000d0: 0000 0000 0000 0000 0000 0000 0000 0000
000000e0: 0000 0000 0000 0000 0000 0000 0000 0000
000000f0: 0000 0000 0000 0000 0000 0000 0000 0000

denseblock1.layers.0.norm1.running_mean f4 [64]
0.46110386 0.46498254 0.44585928 0.45764875 0.47375122 0.5639302 0.50638074 0.59988475
0.43907723 0.49468896 0.46210307 0.5361212 0.5743556 0.5162076 0.45288405 0.4409915
0.48586664 0.51360303 0.45746022 0.6087445 0.45748526 0.43986353 0.4583507 0.4372614
0.47225764 0.46157354 0.4541528 0.49440712 0.50066024 0.5238281 0.4499011 0.4505244
0.45741934 0.62083054 0.4778593 0.4714676 0.4620662 0.47845572 0.45335042 0.56639916
0.44169575 0.44986206 0.4488487 0.50733924 0.4690672 0.689501 0.4437451 0.44310582
0.458027 0.49594086 0.44367486 0.4471035 0.453018 0.44807938 0.45721686 0.47841644
0.55681765 0.60069686 0.60449046 0.4472642 0.5575961 0.4731623 0.49384394 0.5008542
00000000: ce15 ec3e 3112 ee3e ab47 e43e f050 ea3e
00000010: 858f f23e bb5d 103f 2ba2 013f 0c92 193f
00000020: bbce e03e df47 fd3e c698 ec3e 3d3f 093f
00000030: f808 133f 2e26 043f 6be0 e73e a3c9 e13e
00000040: 83c3 f83e 7d7b 033f 3a38 ea3e aed6 1b3f
00000050: 823b ea3e cb35 e13e f1ac ea3e bae0 df3e
00000060: c1cb f13e 5e53 ec3e b786 e83e ee22 fd3e
00000070: 452b 003f 9919 063f 7059 e63e 22ab e63e
00000080: de32 ea3e c0ee 1e3f f9a9 f43e 3464 f13e
00000090: f193 ec3e 26f8 f43e 8c1d e83e 89ff 103f
000000a0: f225 e23e 5254 e63e 7fcf e53e fce0 013f
000000b0: 9329 f03e 2383 303f 8f32 e33e c4de e23e
000000c0: 8482 ea3e f6eb fd3e 5a29 e33e c0ea e43e
000000d0: faf1 e73e a96a e53e 5418 ea3e 00f3 f43e
000000e0: 9a8b 0e3f 45c7 193f e3bf 1a3f d0ff e43e
000000f0: 9ebe 0e3f 5442 f23e 1dd9 fc3e fb37 003f

denseblock1.layers.0.norm1.running_var f4 [64]
0.43166977 0.42914566 0.27798682 0.29720545 0.3017089 0.87001085 0.4843613 1.177613
0.27226713 0.36767644 0.2960369 0.42920706 1.0654166 0.5779343 0.4188263 0.2749895
0.46514365 0.35502282 0.42641616 1.0764279 0.422198 0.27264285 0.42710853 0.27185807
0.44665146 0.29545608 0.42453778 0.50427264 0.3827948 0.52961195 0.41730487 0.28047672
0.4247286 0.88203275 0.46360698 0.295991 0.42836258 0.4544787 0.4198644 0.65679884
0.27422196 0.41933918 0.41747236 0.5856525 0.43654588 0.96904504 0.4131719 0.2763434
0.4248136 0.33050796 0.2751419 0.27894396 0.42021123 0.2790401 0.42526004 0.36808342
1.2400103 0.95167583 1.0691906 0.2784668 0.45913792 0.44045165 0.4774249 0.32185632
00000000: d203 dd3e fbb8 db3e 4a54 8e3e 502b 983e
00000010: 9779 9a3e 08b9 5e3f 34fe f73e 06bc 963f
00000020: 9966 8b3e 1640 bc3e 2692 973e 07c1 db3e
00000030: 925f 883f 81f3 133f 6770 d63e 6ccb 8c3e
00000040: 4f27 ee3e 8dc5 b53e 3853 da3e 64c8 893f
00000050: 562a d83e d897 8b3e f8ad da3e fb30 8b3e
00000060: 80af e43e 0546 973e 045d d93e 0318 013f
00000070: aefd c33e a694 073f fca8 d53e a59a 8f3e
00000080: 0776 d93e e6cc 613f e55d ed3e 228c 973e
00000090: 5752 db3e 6fb1 e83e 77f8 d63e f823 283f
000000a0: d266 8c3e a0b3 d63e f0be d53e 52ed 153f
000000b0: f182 df3e 5613 783f 448b d33e e27c 8d3e
000000c0: 2b81 d93e 5738 a93e 66df 8c3e bed1 8e3e
000000d0: ed25 d73e 58de 8e3e afbb d93e 6e75 bc3e
000000e0: a8b8 9e3f 07a1 733f 3ddb 883f 3393 8e3e
000000f0: 2014 eb3e e182 e13e 0971 f43e 5aca a43e

denseblock1.layers.0.conv1.weight f4 [16, 64, 1, 1]
-0.023489252 0.003313452 0.12213893 -0.073770866 0.12085536 0.060899332 0.09813222 0.0147533715
-0.112463534 -0.05471933 -0.07623221 0.06952363 0.03762202 0.072842 0.047097117 -0.03933525
-0.10322055 0.060662255 -0.077980384 0.034573257 0.07472761 -0.013029322 -0.12230669 -0.07342318
-0.05603926 0.0803304 -0.05460936 -0.10043788 0.007842466 0.10872944 -0.0629313 0.09098898
-0.029169217 -0.095409915 0.10952024 0.024462655 -0.035878167 0.07741386 -0.11913897 -0.086775735
0.0499105 -0.07353091 0.056973666 0.050104946 -0.09921256 0.04690866 0.039712325 0.024453565
0.0090961605 -0.11399531 -0.106952876 0.11023578 -0.039123848 0.050241113 -0.06570488 -0.07091734
-0.049662337 0.10479732 0.0895752 -0.11745161 -0.03723374 0.010767758 -0.09323749 0.10745059
0.101141185 -0.024321005 -0.06981644 0.100883394 0.005060464 -0.007262811 0.016936243 0.11874816
-0.1170883 -0.10947633 0.11842531 -0.032907844 0.026902974 -0.121712014 0.085679516 -0.06679194
0.04762587 0.09070118 -0.09343316 -0.001990661 0.030309096 -0.033355728 0.11392836 -0.005531743
0.03554648 -0.09108734 0.078213766 0.012460336 0.01895599 0.04420322 -0.06843576 -0.011360154
-0.050978467 0.09190786 0.10188025 0.06926705 -0.049634054 -0.06574421 -0.111292586 -0.045793876
0.029911086 0.0806136 0.048070073 -0.09414688 0.015754104 -0.0025282353 -0.040761843 0.124167025
0.054708645 -0.09227955 0.034896985 0.075089455 -0.0033082664 0.073983416 0.09188932 0.07538754
-0.11538412 -0.089958414 -0.011677146 0.07642776 -0.06420556 0.10249993 -0.03551632 0.046762407
-0.02436167 0.06545703 -0.06540656 -0.032470137 0.09665613 -0.109109774 0.08558501 0.027372107
-0.033599794 0.10871525 0.102211505 0.089907974 -0.047779918 0.0891612 -0.0027053356 0.047865808
0.030113712 0.07910594 -0.10075042 -0.074998796 0.06567384 0.056283638 0.01507026 0.042124867
0.038648367 0.09712766 0.07779159 -0.057304233 -0.06265056 -0.11784771 -0.028594151 0.09910506
0.047369286 -0.05086854 -0.09122121 -0.0014537573 0.10658221 -0.09139767 -0.068069264 -0.018669978
-0.031351686 -0.045462757 0.04394953 -0.024483323 0.11086929 0.015431955 -0.10992658 -0.058224604
-0.034044623 0.026157573 -0.02200593 -0.09343636 -0.11327705 -0.10440214 -0.09959583 -0.07184744
0.12324469 -0.11321513 -0.00835748 -0.08818351 -0.033689022 -0.08657977 -0.022674888 0.11907214
-0.07971208 -0.12276824 -0.09805542 0.109478 -0.1012229 0.00026865304 0.09069057 -0.09611216
0.02640307 -0.101695165 -0.025778204 -0.0030853003 0.0770254 0.099102005 0.09530932 -0.024302393
-0.08635883 -0.0936583 0.06454767 0.057185695 0.07261936 -0.017969474 -0.01799114 0.11334734
-0.07494639 0.09737781 -0.013400465 0.10895564 0.10905209 -0.112370566 0.036068365 -0.1157473
-0.024349809 -0.04083714 0.12298784 0.06495726 0.04132369 -0.05568114 -0.09195028 0.122181
0.10534911 -0.068435535 -0.11305779 -0.001565069 0.055280402 -0.026408672 0.01423046 0.10008517
0.09770931 0.11724782 -0.012136042 0.043471202 -0.08200072 0.0845426 -0.005663261 0.041113243
0.09028058 0.06087351 -0.11776054 -0.10656385 0.087360784 -0.0673998 0.06352125 0.09088671
00000000: 886c c0bc 8026 593b fa23 fa3d 2e15 97bd
00000010: 0483 f73d 9471 793d 8cf9 c83d 20b8 713c
00000020: 4853 e6bd 6021 60bd a21f 9cbd 6862 8e3d
00000030: 8c19 1a3d 302e 953d e8e8 403d 001e 21bd
00000040: 4c65 d3bd fc78 783d 2eb4 9fbd b09c 0d3d
00000050: ca0a 993d f078 55bc ee7b fabd e45e 96bd
00000060: 6c89 65bd 4484 a43d 10ae 5fbd 60b2 cdbd
00000070: b07d 003c 8aad de3d 20e2 80bd 6e58 ba3d
00000080: 48f4 eebc 4666 c3bd 264c e03d e865 c83c
00000090: fcf4 12bd 288b 9e3d 22ff f3bd 7ab7 b1bd
000000a0: f46e 4c3d 6097 96bd 385d 693d d83a 4d3d
000000b0: f42f cbbd 4c23 403d 64a9 223d d852 c83c
000000c0: 1008 153c 6076 e9bd 1c0a dbbd 4cc3 e13d
000000d0: 5440 20bd a0c9 4d3d 4890 86bd 1c3d 91bd
000000e0: bc6a 4bbd fa9f d63d 3473 b73d 788a f0bd
000000f0: 6882 18bd 406b 303c 4cf3 bebd 0e0f dc3d
00000100: 1c23 cf3d d83c c7bc ecfb 8ebd f49b ce3d
00000110: 40d2 a53b e0fc edbb e0bd 8a3c 3c32 f33d
00000120: fecb efbd 2035 e0bd f888 f23d 60ca 06bd
00000130: a063 dc3c 2644 f9bd be78 af3d 36ca 88bd
00000140: 5813 433d 8ac1 b93d e259 bfbd c075 02bb
00000150: c84a f83c 04a0 08bd 4653 e93d a043 b5bb
00000160: 3099 113d 008c babd 8a2e a03d 7026 4c3c
00000170: 9849 9b3c 700e 353d 0c28 8cbd f01f 3abc
00000180: ccce 50bd 303a bc3d 98a6 d03d e2db 8d3d
00000190: 144d 4bbd e6a4 86bd 5eed e3bd 5c92 3bbd
000001a0: 1808 f53c be18 a53d 20e5 443d 14d0 c0bd
000001b0: c00e 813c c0b0 25bb e4f5 26bd 484b fe3d
000001c0: 2c16 603d 10fd bcbd 24f0 0e3d 80c8 993d
000001d0: 80cf 58bb 9e84 973d 7830 bc3d c864 9a3d
000001e0: 824e ecbd 1e3c b8bd 8051 3fbc 2886 9c3d
000001f0: 347e 83bd 7ceb d13d 9079 11bd f089 3f3d
00000200: 2092 c7bc 560e 863d e0f3 85bd 68ff 04bd
00000210: a6f3 c53d f274 dfbd 3247 af3d 783b e03c
00000220: f09f 09bd 1aa6 de3d 4454 d13d ac21 b83d
00000230: e0b4 43bd 269a b63d 004c 31bb f00e 443d
00000240: 08b1 f63c 4c02 a23d 3c56 cebd f898 99bd
00000250: 0280 863d ac89 663d 40e9 763c 208b 2c3d
00000260: c04d 1e3d deea c63d 3251 9f3d d8b7 6abd
00000270: f04e 80bd 245a f1bd 483e eabc 98f7 ca3d
00000280: 4c06 423d 885b 50bd 30d2 babd 008c beba
00000290: c647 da3d b42e bbbd e667 8bbd c8f1 98bc
000002a0: a06a 00bd 2837 3abd 6c04 343d 4091 c8bc
000002b0: 700f e33d 50d6 7c3c 3021 e1bd ec7c 6ebd
000002c0: 6072 0bbd 6848 d63c c845 b4bc 905b bfbd
000002d0: ccfd e7bd cad0 d5bd e6f8 cbbd c024 93bd
000002e0: b667 fc3d 56dd e7bd d0ed 08bc 8e99 b4bd
000002f0: 80fd 09bd bc50 b1bd b0c0 b9bc 18dc f33d
00000300: 1640 a3bd ea6d fbbd 48d1 c8bd 0036 e03d
00000310: f44d cfbd 00da 8c39 fabb b93d 74d6 c4bd
00000320: 404b d83c 8e45 d0bd d02c d3bc c032 4abb
00000330: 7ebf 9d3d fef5 ca3d 8831 c33d d015 c7bc
00000340: e6dc b0bd eccf bfbd 9231 843d 8c3b 6a3d
00000350: 76b9 943d b834 93bc 2862 93bc a622 e83d
00000360: 7e7d 99bd 046e c73d a08d 5bbc 2224 df3d
00000370: b456 df3d 8a22 e6bd 6cbc 133d ec0c edbd
00000380: 4079 c7bc d844 27bd 0ce1 fb3d 5008 853d
00000390: 0843 293d e811 64bd 6e50 bcbd 083a fa3d
000003a0: 46c1 d73d ee27 8cbd d88a e7bd 0023 cdba
000003b0: b46d 623d 0057 d8bc e026 693c 74f9 cc3d
000003c0: d21b c83d a01f f03d 40d6 46bc dc0e 323d
000003d0: feef a7bd ac24 ad3d e092 b9bb 5c66 283d
000003e0: 06e5 b83d 8056 793d 702c f1bd 263e dabd
000003f0: 36ea b23d e808 8abd 6e17 823d d022 ba3d

denseblock1.layers.0.norm2.weight f4 [16]
1.0 1.0 1.0 1.0 1.0 1.0 1.0 1.0
1.0 1.0 1.0 1.0 1.0 1.0 1.0 1.0
00000000: 0000 803f 0000 803f 0000 803f 0000 803f
00000010: 0000 803f 0000 803f 0000 803f 0000 803f
00000020: 0000 803f 0000 803f 0000 803f 0000 803f
00000030: 0000 803f 0000 803f 0000 803f 0000 803f

denseblock1.layers.0.norm2.bias f4 [16]
0.0 0.0 0.0 0.0 0.0 0.0 0.0 0.0
0.0 0.0 0.0 0.0 0.0 0.0 0.0 0.0
00000000: 0000 0000 0000 0000 0000 0000 0000 0000
00000010: 0000 0000 0000 0000 0000 0000 0000 0000
00000020: 0000 0000 0000 0000 0000 0000 0000 0000
00000030: 0000 0000 0000 0000 0000 0000 0000 0000

denseblock1.layers.0.norm2.running_mean f4 [16]
-0.121338636 0.22990914 -0.10012804 0.22343975 0.10000648 -0.13035525 0.12402069 -0.0682786
0.5239463 0.54934675 -0.24447833 -0.024085112 0.13796577 -0.07025585 0.17604381 -0.09485179
00000000: 6480 f8bd 4d6d 6b3e ee0f cdbd 64cd 643e
00000010: 33d0 cc3d d97b 05be 8ffe fd3d a7d5 8bbd
00000020: 5821 063f fda1 0c3f 8758 7abe 244e c5bc
00000030: e646 0d3e 4de2 8fbd d444 343e a841 c2bd

denseblock1.layers.0.norm2.running_var f4 [16]
0.15164015 0.11161649 0.120637126 0.21017855 0.05415955 0.08184601 0.24999472 0.08067135
0.36396542 0.401479 0.08383368 0.10889997 0.3048433 0.03718818 0.16622329 0.12494416
00000000: 8e47 1b3e 3097 e43d 9910 f73d 0c39 573e
00000010: 68d6 5d3d e29e a73d 9efe 7f3e 0537 a53d
00000020: ad59 ba3e a88e cd3e feb0 ab3d f306 df3d
00000030: 6c14 9c3e a252 183d 7036 2a3e b9e2 ff3d

denseblock1.layers.0.conv2.weight f4 [4, 16, 3, 3]
0.03615176 0.036712628 0.053559266 0.07459326 -0.06326792 -0.017430713 -0.047975164 -0.069990635
-0.047762346 -0.07114038 -0.052277606 0.030732363 -0.06839251 -0.07708196 -0.0037474632 -0.075705074
-0.07810225 -0.008366039 0.0172006 0.08053252 -0.02920264 0.033632886 0.022202622 0.075141266
-0.06926595 -0.07310241 -0.03220111 -0.007726103 0.07350549 -0.04572343 -0.035312407 -0.019734245
0.008288602 0.03495921 0.008680533 0.009494851 -0.06496691 0.0566239 0.07516458 0.056695282
-0.03742408 0.035968106 0.04729902 0.06369623 0.052407783 -0.07343101 -0.07507259 0.015035531
0.06501864 -0.0025282204 0.06240382 -0.053877544 -0.047382474 0.05043938 0.037136964 -0.05445879
0.07985631 -0.0404469 0.07979761 0.08235126 -0.07482266 -0.03676369 -0.07938596 0.06452648
-0.07171093 0.074411854 0.041296225 0.029857516 -0.031169754 0.045921557 -0.020031264 0.07139807
0.07434735 0.01302595 -0.06961628 0.06724295 -0.053613663 -0.044527203 -0.040123872 0.008008113
0.009251307 -0.0038264394 -0.03473627 0.079634115 -0.02333358 0.06641747 -0.028671106 -0.030427715
-0.032609295 -0.0029089153 0.009739409 -0.008783191 0.00040294728 -0.023351949 -0.041130763 -0.07099321
-0.05578637 0.03368966 0.0151459975 0.00025573373 -0.06668695 0.07729229 -0.055497836 0.08204194
0.052824073 -0.016701927 0.011341056 -0.014704645 0.057931017 0.06222754 0.044636767 -0.06669453
0.072201274 -0.012817095 -0.060713124 0.008694897 -0.07198869 -0.015421649 -0.01120474 0.072734945
-0.06196808 0.031693004 0.041540008 0.07811513 -0.078271315 -0.058180563 -0.024006229 0.050564747
-0.0107705295 -0.006544441 0.061360598 0.014680743 0.049228482 0.07852489 -0.04975956 -0.024751991
-0.06594831 -0.0389753 0.058618687 0.011035731 0.009280801 -0.03812754 -0.034827113 -0.04773333
-0.07989995 0.04389169 -0.03553932 -0.05900412 -0.011194617 -0.021123707 0.045604646 0.00027214488
0.020380735 -0.014829576 -0.044280402 0.04639461 -0.0039356253 -0.041890047 -0.07596031 0.0540021
0.031003427 -0.06128175 -0.08055456 -0.06593169 0.082552455 -0.01786836 -0.0075190566 0.06327649
-0.0031559865 -0.034511697 -0.057379477 0.06875473 -0.05101672 -0.032618284 0.049581796 -0.02335767
-0.05548952 0.017431896 0.03941559 0.07164755 -0.073289976 -0.03276235 0.036822163 -0.012497574
0.02017231 -0.013623765 -0.008517375 -0.07364526 -0.011181116 0.021077573 -0.008906772 0.025627494
0.048829805 0.023930531 0.060055546 0.05764696 -0.020430535 -0.013522586 -0.02285568 0.03804955
0.037658542 0.015119225 0.049524408 0.015362988 -0.042285286 -0.025352042 0.01632904 0.0131430235
0.02214858 -0.02888764 -0.07165553 0.040706586 -0.0076392395 -0.024370026 -0.023790052 0.020333072
-0.078923635 0.041564517 -0.052471124 0.04672288 0.060373437 0.050844125 0.03385965 0.037700903
-0.00028443336 0.06854753 0.030892432 0.061115406 0.03293247 0.0626921 -0.017326605 -0.011204472
0.08261241 0.011900763 0.0709907 0.07201707 0.027569722 -0.08067246 -0.025338253 -0.08002277
0.05031384 -0.052324217 -0.033264987 0.02028811 -0.081335545 0.057743937 0.043162923 -0.06813129
0.035387885 -0.0038432877 0.025509775 0.0050417683 0.03887418 -0.044324756 0.045898758 0.03543059
00000000: de13 143d fb5f 163d f660 5b3d 5ac4 983d
00000010: 9c92 81bd dbca 8ebc 9b81 44bd 4057 8fbd
00000020: 73a2 43bd 0cb2 91bd 0b21 56bd 70c2 fb3c
00000030: 5f11 8cbd 26dd 9dbd 0098 75bb 430b 9bbd
00000040: 13f4 9fbd b611 09bc 46e8 8c3c 3cee a43d
00000050: 603a efbc a3c2 093d 46e2 b53c aae3 993d
00000060: 4edb 8dbd b7b6 95bd 50e5 03bd 402b fdbb
00000070: 0c8a 963d 7e48 3bbd bea3 10bd b6a9 a1bc
00000080: ebcc 073c 6331 0f3d cb38 0e3c 4b90 1b3c
00000090: 5f0d 85bd 76ee 673d e3ef 993d 5039 683d
000000a0: fe49 19bd 4b53 133d 9ebc 413d 2b73 823d
000000b0: 8ba9 563d ff62 96bd a8bf 99bd 9657 763c
000000c0: 7e28 853d 80b0 25bb 269b 7f3d b3ae 5cbd
000000d0: 2014 42bd 8699 4e3d ee1c 183d 2e10 5fbd
000000e0: b48b a33d a6ab 25bd ee6c a33d c7a7 a83d
000000f0: 9f3c 99bd 8695 16bd 1b95 a2bd 7626 843d
00000100: 2edd 92bd 3e65 983d 3b26 293d c097 f43c
00000110: b657 ffbc 3e18 3c3d 9b18 a4bc 2739 923d
00000120: 6c43 983d cb6a 553c fb92 8ebd acb6 893d
00000130: 009a 5bbd 2862 36bd ee58 24bd 7634 033c
00000140: cb92 173c 00c5 7abb 9e47 0ebd 3617 a33d
00000150: 1026 bfbc e205 883d abdf eabc 8b43 f9bc
00000160: 5391 05bd 80a3 3ebb 0b92 1f3c 60e7 0fbc
00000170: ab42 d339 964c bfbc bb78 28bd e364 91bd
00000180: 4080 64bd 2bfe 093d eb26 783c 0014 8639
00000190: 2b93 88bd 6c4b 9e3d b351 63bd 9b05 a83d
000001a0: 0e5e 583d 7bd2 88bc d6cf 393c c0eb 70bc
000001b0: 1349 6d3d 4ee2 7e3d 0bd5 363d 2497 88bd
000001c0: 43de 933d cbfe 51bc 53ae 78bd 0b75 0e3c
000001d0: ce6e 93bd 16ab 7cbc 1694 37bc 0ff6 943d
000001e0: 3ed2 7dbd 86d0 013d db25 2a3d d3fa 9f3d
000001f0: b64c a0bd be4e 6ebd b6a8 c4bc fb1c 4f3d
00000200: e076 30bc c072 d6bb 4055 7b3d 8087 703c
00000210: cea3 493d a8d1 a03d aed0 4bbd b0c4 cabc
00000220: e80f 87bd 90a4 1fbd 261a 703d 36cf 343c
00000230: 800e 183c a02b 1cbd e0a6 0ebd 0684 43bd
00000240: 96a2 a3bd c6c7 333d ae91 11bd 4eae 71bd
00000250: a069 37bc a00b adbc f0cb 3a3d abae 8e39
00000260: 80f5 a63c c0f7 72bc 5e5f 35bd 4608 3e3d
00000270: 6bf6 80bb e694 2bbd 1491 9bbd 4e31 5d3d
00000280: e6fa fd3c 9302 7bbd caf9 a4bd 3207 87bd
00000290: 4311 a93d ab60 92bc 6b62 f6bb 1b97 813d
000002a0: abd4 4ebb 235c 0dbd be06 6bbd 48cf 8c3d
000002b0: e8f6 50bd c09a 05bd 4816 4b3d 9658 bfbc
000002c0: fb48 63bd 56cd 8e3c 3e72 213d f3bb 923d
000002d0: 0e19 96bd d031 06bd d6d2 163d a0c2 4cbc
000002e0: 6640 a53c 3636 5fbc 768c 0bbc 53d3 96bd
000002f0: 0031 37bc e0aa ac3c b6ed 11bc c0f0 d13c
00000300: c301 483d f609 c43c cefc 753d 381f 6c3d
00000310: f05d a7bc d68d 5dbc d63b bbbc d8d9 1b3d
00000320: d83f 1a3d a0b6 773c 1bda 4a3d 0bb5 7b3c
00000330: 5633 2dbd 16af cfbc 7bc4 853c d655 573c
00000340: f070 b53c c6a5 ecbc 22c0 92bd f3bb 263d
00000350: 9652 fabb a6a3 c7bc 5be3 c2bc 8b91 a63c
00000360: b7a2 a1bd 8e3f 2a3d f6eb 56bd 7e60 3f3d
00000370: 234a 773d ee41 503d 6bb0 0a3d 436c 1a3d
00000380: 0020 95b9 a662 8c3d 2012 fd3c 2654 7a3d
00000390: 33e4 063d b764 803d 86f0 8dbc f692 37bc
000003a0: b230 a93d 6bfb 423c 9263 913d b07d 933d
000003b0: e6d9 e13c 9a37 a5bd 2b92 cfbc fae2 a3bd
000003c0: e315 4e3d eb51 56bd de40 08bd 4033 a63c
000003d0: 4093 a6bd e884 6c3d 9bcb 303d 6b88 8bbd
000003e0: e3f2 103d abdf 7bbb e0f9 d03c 6b35 a53b
000003f0: 883a 1f3d e08d 35bd 5600 3c3d ab1f 113d

denseblock1.layers.0.classifier.weight f4 [15, 4]
0.48381108 -0.40951467 0.44399297 -0.40975004 0.4666463 0.34502608 0.020918787 0.11290133
-0.36598587 -0.047392845 -0.3731203 0.2899251 0.34760267 0.105104744 -0.13001424 0.47537845
0.30183232 -0.08984488 -0.22256148 0.1697939 -0.27306145 0.4350434 0.4749313 0.088654876
-0.2793436 -0.01768291 -0.06337869 0.33591223 0.06893456 -0.28517288 0.25028104 0.3563035
0.33087826 0.4543441 0.36138964 -0.26887286 0.44890916 -0.3433172 0.39219695 -0.048846066
0.46852827 0.06419283 -0.16545403 0.06290543 0.43486804 0.027265668 0.21965271 0.42478287
-0.35025483 -0.27274543 0.16980332 0.38537884 -0.41682512 -0.09904325 0.0012132525 -0.19185674
-0.32881653 0.234914 -0.053242207 -0.19613743
00000000: 16b6 f73e e8ab d1be 0c53 e33e c2ca d1be
00000010: 44ec ee3e 42a7 b03e e05d ab3c d038 e73d
00000020: 8062 bbbe 001f 42bd a009 bfbe 1071 943e
00000030: faf8 b13e 2841 d73d 7422 05be ce64 f33e
00000040: c489 9a3e 9800 b8bd 28e7 63be 74de 2d3e
00000050: b6ce 8bbe 02be de3e 322a f33e b090 b53d
00000060: 2006 8fbe c0db 90bc b0cc 81bd b0fc ab3e
00000070: 902d 8d3d 2e02 92be d624 803e 6a6d b63e
00000080: e068 a93e ca9f e83e 1008 b93e b4a9 89be
00000090: 6cd7 e53e 46c7 afbe 0ace c83e d012 48bd
000000a0: f0e2 ef3e 8877 833d c86c 29be 90d4 803d
000000b0: 06a7 de3e 405c df3c a4ec 603e 247d d93e
000000c0: 9a54 b3be 4aa5 8bbe ece0 2d3e 6050 c53e
000000d0: 1a6a d5be 30d7 cabd 0006 9f3a 1876 44be
000000e0: a45a a8be 4c8d 703e 8014 5abd 40d8 48be

denseblock1.layers.0.classifier.bias f4 [15]
-0.3010733 0.3654107 -0.21507007 -0.134624 0.22220111 0.14850211 -0.24339092 0.16022402
0.12494701 -0.24245626 -0.3376484 -0.06499779 0.4755413 0.21824294 -0.029825985
00000000: 4826 9abe 1c17 bb3e 543b 5cbe e0da 09be
00000010: b088 633e f010 183e 783b 79be c411 243e
00000020: 38e4 ff3d 7446 78be 40e0 acbe 901d 85bd
00000030: 267a f33e 147b 5f3e a055 f4bc

denseblock1.layers.1.norm1.weight f4 [68]
1.0 1.0 1.0 1.0 1.0 1.0 1.0 1.0
1.0 1.0 1.0 1.0 1.0 1.0 1.0 1.0
1.0 1.0 1.0 1.0 1.0 1.0 1.0 1.0
1.0 1.0 1.0 1.0 1.0 1.0 1.0 1.0
1.0 1.0 1.0 1.0 1.0 1.0 1.0 1.0
1.0 1.0 1.0 1.0 1.0 1.0 1.0 1.0
1.0 1.0 1.0 1.0 1.0 1.0 1.0 1.0
1.0 1.0 1.0 1.0 1.0 1.0 1.0 1.0
1.0 1.0 1.0 1.0
00000000: 0000 803f 0000 803f 0000 803f 0000 803f
00000010: 0000 803f 0000 803f 0000 803f 0000 803f
00000020: 0000 803f 0000 803f 0000 803f 0000 803f
00000030: 0000 803f 0000 803f 0000 803f 0000 803f
00000040: 0000 803f 0000 803f 0000 803f 0000 803f
00000050: 0000 803f 0000 803f 0000 803f 0000 803f
00000060: 0000 803f 0000 803f 0000 803f 0000 803f
00000070: 0000 803f 0000 803f 0000 803f 0000 803f
00000080: 0000 803f 0000 803f 0000 803f 0000 803f
00000090: 0000 803f 0000 803f 0000 803f 0000 803f
000000a0: 0000 803f 0000 803f 0000 803f 0000 803f
000000b0: 0000 803f 0000 803f 0000 803f 0000 803f
000000c0: 0000 803f 0000 803f 0000 803f 0000 803f
000000d0: 0000 803f 0000 803f 0000 803f 0000 803f
000000e0: 0000 803f 0000 803f 0000 803f 0000 803f
000000f0: 0000 803f 0000 803f 0000 803f 0000 803f
00000100: 0000 803f 0000 803f 0000 803f 0000 803f

denseblock1.layers.1.norm1.bias f4 [68]
0.0 0.0 0.0 0.0 0.0 0.0 0.0 0.0
0.0 0.0 0.0 0.0 0.0 0.0 0.0 0.0
0.0 0.0 0.0 0.0 0.0 0.0 0.0 0.0
0.0 0.0 0.0 0.0 0.0 0.0 0.0 0.0
0.0 0.0 0.0 0.0 0.0 0.0 0.0 0.0
0.0 0.0 0.0 0.0 0.0 0.0 0.0 0.0
0.0 0.0 0.0 0.0 0.0 0.0 0.0 0.0
0.0 0.0 0.0 0.0 0.0 0.0 0.0 0.0
0.0 0.0 0.0 0.0
00000000: 0000 0000 0000 0000 0000 0000 0000 0000
00000010: 0000 0000 0000 0000 0000 0000 0000 0000
00000020: 0000 0000 0000 0000 0000 0000 0000 0000
00000030: 0000 0000 0000 0000 0000 0000 0000 0000
00000040: 0000 0000 0000 0000 0000 0000 0000 0000
00000050: 0000 0000 0000 0000 0000 0000 0000 0000
00000060: 0000 0000 0000 0000 0000 0000 0000 0000
00000070: 0000 0000 0000 0000 0000 0000 0000 0000
00000080: 0000 0000 0000 0000 0000 0000 0000 0000
00000090: 0000 0000 0000 0000 0000 0000 0000 0000
000000a0: 0000 0000 0000 0000 0000 0000 0000 0000
000000b0: 0000 0000 0000 0000 0000 0000 0000 0000
000000c0: 0000 0000 0000 0000 0000 0000 0000 0000
000000d0: 0000 0000 0000 0000 0000 0000 0000 0000
000000e0: 0000 0000 0000 0000 0000 0000 0000 0000
000000f0: 0000 0000 0000 0000 0000 0000 0000 0000
00000100: 0000 0000 0000 0000 0000 0000 0000 0000

denseblock1.layers.1.norm1.running_mean f4 [68]
0.46110386 0.46498254 0.44585928 0.45764875 0.47375122 0.5639302 0.50638074 0.59988475
0.43907723 0.49468896 0.46210307 0.5361212 0.5743556 0.5162076 0.45288405 0.4409915
0.48586664 0.51360303 0.45746022 0.6087445 0.45748526 0.43986353 0.4583507 0.4372614
0.47225764 0.46157354 0.4541528 0.49440712 0.50066024 0.5238281 0.4499011 0.4505244
0.45741934 0.62083054 0.4778593 0.4714676 0.4620662 0.47845572 0.45335042 0.56639916
0.44169575 0.44986206 0.4488487 0.50733924 0.4690672 0.689501 0.4437451 0.44310582
0.458027 0.49594086 0.44367486 0.4471035 0.453018 0.44807938 0.45721686 0.47841644
0.55681765 0.60069686 0.60449046 0.4472642 0.5575961 0.4731623 0.49384394 0.5008542
-0.033203952 0.1419745 0.12179748 -0.24628481
00000000: ce15 ec3e 3112 ee3e ab47 e43e f050 ea3e
00000010: 858f f23e bb5d 103f 2ba2 013f 0c92 193f
00000020: bbce e03e df47 fd3e c698 ec3e 3d3f 093f
00000030: f808 133f 2e26 043f 6be0 e73e a3c9 e13e
00000040: 83c3 f83e 7d7b 033f 3a38 ea3e aed6 1b3f
00000050: 823b ea3e cb35 e13e f1ac ea3e bae0 df3e
00000060: c1cb f13e 5e53 ec3e b786 e83e ee22 fd3e
00000070: 452b 003f 9919 063f 7059 e63e 22ab e63e
00000080: de32 ea3e c0ee 1e3f f9a9 f43e 3464 f13e
00000090: f193 ec3e 26f8 f43e 8c1d e83e 89ff 103f
000000a0: f225 e23e 5254 e63e 7fcf e53e fce0 013f
000000b0: 9329 f03e 2383 303f 8f32 e33e c4de e23e
000000c0: 8482 ea3e f6eb fd3e 5a29 e33e c0ea e43e
000000d0: faf1 e73e a96a e53e 5418 ea3e 00f3 f43e
000000e0: 9a8b 0e3f 45c7 193f e3bf 1a3f d0ff e43e
000000f0: 9ebe 0e3f 5442 f23e 1dd9 fc3e fb37 003f
00000100: de00 08bd c361 113e f570 f93d 1632 7cbe

denseblock1.layers.1.norm1.running_var f4 [68]
0.43166977 0.42914566 0.27798682 0.29720545 0.3017089 0.87001085 0.4843613 1.177613
0.27226713 0.36767644 0.2960369 0.42920706 1.0654166 0.5779343 0.4188263 0.2749895
0.46514365 0.35502282 0.42641616 1.0764279 0.422198 0.27264285 0.42710853 0.27185807
0.44665146 0.29545608 0.42453778 0.50427264 0.3827948 0.52961195 0.41730487 0.28047672
0.4247286 0.88203275 0.46360698 0.295991 0.42836258 0.4544787 0.4198644 0.65679884
0.27422196 0.41933918 0.41747236 0.5856525 0.43654588 0.96904504 0.4131719 0.2763434
0.4248136 0.33050796 0.2751419 0.27894396 0.42021123 0.2790401 0.42526004 0.36808342
1.2400103 0.95167583 1.0691906 0.2784668 0.45913792 0.44045165 0.4774249 0.32185632
0.11542719 0.25809965 0.10043823 0.10411289
00000000: d203 dd3e fbb8 db3e 4a54 8e3e 502b 983e
00000010: 9779 9a3e 08b9 5e3f 34fe f73e 06bc 963f
00000020: 9966 8b3e 1640 bc3e 2692 973e 07c1 db3e
00000030: 925f 883f 81f3 133f 6770 d63e 6ccb 8c3e
00000040: 4f27 ee3e 8dc5 b53e 3853 da3e 64c8 893f
00000050: 562a d83e d897 8b3e f8ad da3e fb30 8b3e
00000060: 80af e43e 0546 973e 045d d93e 0318 013f
00000070: aefd c33e a694 073f fca8 d53e a59a 8f3e
00000080: 0776 d93e e6cc 613f e55d ed3e 228c 973e
00000090: 5752 db3e 6fb1 e83e 77f8 d63e f823 283f
000000a0: d266 8c3e a0b3 d63e f0be d53e 52ed 153f
000000b0: f182 df3e 5613 783f 448b d33e e27c 8d3e
000000c0: 2b81 d93e 5738 a93e 66df 8c3e bed1 8e3e
000000d0: ed25 d73e 58de 8e3e afbb d93e 6e75 bc3e
000000e0: a8b8 9e3f 07a1 733f 3ddb 883f 3393 8e3e
000000f0: 2014 eb3e e182 e13e 0971 f43e 5aca a43e
00000100: 1765 ec3d a325 843e 8fb2 cd3d 2439 d53d

denseblock1.layers.1.conv1.weight f4 [16, 68, 1, 1]
0.031474464 0.053491708 0.100437626 -0.014944177 0.0649916 -0.04053151 0.11429449 0.08041342
-0.0770985 0.10936756 -0.034636322 -0.0947383 -0.09907228 0.049411476 0.0721581 -0.09262519
0.032470934 0.094438344 -0.034816563 -0.016860498 -0.07595573 0.08220306 0.09522479 -0.023461567
0.010917996 0.059804812 0.011133885 0.039576367 -0.010558266 -0.11372607 -0.025552953 -0.03138991
0.019829016 0.08110819 0.07855153 -0.008883813 -0.11925849 0.07751402 0.011543228 -0.017989473
0.02313834 -0.12026786 -0.0075394544 -0.0055256556 -0.005624594 -0.111352816 -0.06647575 0.050058305
0.072909616 0.03166951 0.089695364 -0.039530326 -0.01738082 0.11163778 0.09557543 0.09581541
0.11453433 -0.111489736 0.04455922 0.08734729 0.07299379 -0.036071308 -0.043216668 -0.04226319
-0.06943704 -0.01484106 0.019976541 0.00027659143 0.026260978 0.1143012 0.09042789 -0.097543284
-0.01725274 0.108793266 -0.0499599 0.03469902 -0.020437451 0.01763904 -0.034330007 0.019721389
-0.017691458 0.0073887915 -0.021503845 0.0018096189 -0.091051534 -0.11433516 0.080197334 0.031084001
-0.10080892 -0.0073294197 -0.06435908 0.10937031 -0.03933258 0.0109811695 0.03719755 -0.113019176
-0.09327013 0.11119393 -0.028422577 -0.022671591 0.067152716 0.020721313 0.025728699 -0.10331358
-0.016369477 0.016831022 0.08720477 -0.09346052 0.009103534 0.015238809 -0.12011526 -0.03845137
0.020140316 0.00872757 0.0708783 -0.06971012 -0.062597655 -0.007745514 -0.09481124 -0.019425094
-0.044951666 -0.09780283 -0.078107476 -0.052590735 0.05707145 0.065537535 -0.043919533 0.030348439
0.06918262 -0.108975634 0.111434884 -0.121096045 -0.09386602 -0.06980609 0.1021379 -0.08662432
0.08486365 -0.06559179 -0.10009487 0.03238752 -0.0037696261 0.017333448 0.09191385 0.020852605
-0.05663681 -0.10589774 0.11168638 -0.048013918 0.023491204 0.020555427 -0.04247158 0.08430994
0.10906424 0.009454315 0.11610559 -0.05781184 0.059829127 -0.018523935 0.0014692609 0.011302228
-0.057354983 0.07963336 0.07281126 -0.082542785 0.07470614 -0.12106633 0.08439382 -0.025069667
-0.093932286 -0.11009077 -0.09694744 -0.06717984 -0.08483384 -0.042835098 -0.09256225 -0.030651368
-0.046487916 0.041361686 -0.10679476 0.012867132 -0.042081796 0.07370237 0.0051973397 0.018430633
0.10768089 -0.106494896 -0.031583015 -0.005371581 -0.062032837 -0.06634696 0.035086747 -0.03230626
-8.225606e-06 0.030836698 0.008816028 -0.11705392 -0.09096052 -0.11472237 -0.006287341 0.009187207
-0.065854646 -0.041758206 0.09193711 -0.07609559 -0.09432674 0.0691112 -0.11754284 -0.036486056
-0.014572362 -0.108898915 0.04525581 -0.04179874 0.03080618 -0.091403425 0.03399899 -0.009390794
-0.11423798 -0.03988177 -0.05973474 0.035976518 0.112766266 -0.05916126 -0.07434227 -0.069313556
-0.06372261 -0.05329451 -0.1129075 -0.039152786 0.04530353 -0.010830478 0.0588909 0.067548
0.09206681 -0.07625595 -0.03965868 -0.004673937 0.004482637 -0.00231313 0.0042093564 -0.049682833
-0.09246945 0.040522415 0.11114168 -0.0446145 0.014338142 -0.03024616 -0.0557714 0.04104174
-0.049263977 -0.03705702 0.041582607 -0.06458296 0.03667484 0.018437877 -0.031770863 -0.038290862
00000000: 5eeb 003d 1f1a 5b3d 3eb2 cd3d 6cd8 74bc
00000010: 511a 853d 5e04 26bd 3b13 ea3d cbaf a43d
00000020: d2e5 9dbd 19fc df3d d1de 0dbd 2706 c2bd
00000030: 68e6 cabd b063 4a3d a0c7 933d 47b2 bdbd
00000040: 3e00 053d e468 c13d d09b 0ebd 071f 8abc
00000050: ae8e 9bbd 145a a83d 3705 c33d 7932 c0bc
00000060: 65e1 323c e4f5 743d e66a 363c d41a 223d
00000070: 94fc 2cbc 37e9 e8bd 6d54 d1bc b592 00bd
00000080: 7670 a23c 0d1c a63d a0df a03d 6a8d 11bc
00000090: cc3d f4bd acbf 9e3d cf1f 3d3c a95e 93bc
000000a0: 9e8c bd3c ff4e f6bd 870d f7bb 8f10 b5bb
000000b0: 844e b8bb f20c e4bd 7024 88bd f009 4d3d
000000c0: a351 953d e3b7 013d 34b2 b73d 8dea 21bd
000000d0: 3962 8ebc 59a2 e43d 0dbd c33d df3a c43d
000000e0: fa90 ea3d bb54 e4bd bb83 363d 23e3 b23d
000000f0: c57d 953d 82bf 13bd f603 31bd 2b1c 2dbd
00000100: 0235 8ebd eb27 73bc d8a5 a33c 7903 9139
00000110: 4321 d73c bf16 ea3d 4232 b93d c6c4 c7bd
00000120: 9e55 8dbc 01cf de3d c1a2 4cbd 8f20 0e3d
00000130: 716c a7bc bf7f 903c 9f9d 0cbd c08e a13c
00000140: aded 90bc ad1d f23b d528 b0bc bc30 ed3a
00000150: 3a79 babd 8d28 eabd 803e a43d e0a3 fe3c
00000160: e874 cebd a12b f0bb b1ce 83bd 8bfd df3d
00000170: 331b 21bd 5dea 333c 755c 183d 9976 e7bd
00000180: 6904 bfbd a5b9 e33d 77d6 e8bc c6b9 b9bc
00000190: 5d87 893d bebf a93c fec4 d23c 1296 d3bd
000001a0: 4819 86bc 36e1 893c 6a98 b23d 3b68 bfbd
000001b0: fd26 153c 33ac 793c fdfe f5bd 2f7f 1dbd
000001c0: 4efd a43c 15fe 0e3c a428 913d 2ec4 8ebd
000001d0: 3333 80bd 15ce fdbb 652c c2bd 6021 9fbc
000001e0: 3d1f 38bd da4c c8bd d0f6 9fbd 6269 57bd
000001f0: c1c3 693d 8b38 863d f8e4 33bd 4a9d f83c
00000200: 9eaf 8d3d 9e2e dfbd f937 e43d 3401 f8bd
00000210: d43c c0bd 7ff6 8ebd ad2d d13d 1768 b1bd
00000220: fecc ad3d fd54 86bd 8afe ccbd c7a8 043d
00000230: d50b 77bb e0fe 8d3c 543d bc3d 15d3 aa3c
00000240: 00fc 67bd eae0 d8bd d4bb e43d 3eaa 44bd
00000250: a070 c03c db63 a83c aef6 2dbd b1aa ac3d
00000260: 125d df3d 45e6 1a3c c4c8 ed3d 1ccc 6cbd
00000270: 630f 753d 82bf 97bc 3794 c03a fb2c 393c
00000280: 0fed 6abd d116 a33d 121e 953d 310c a9bd
00000290: 88ff 983d a0f1 f7bd abd6 ac3d e75e cdbc
000002a0: 925f c0bd 4577 e1bd 618c c6bd 9595 89bd
000002b0: 5dbd adbd db73 2fbd 4791 bdbd 9418 fbbc
000002c0: 1d6a 3ebd df6a 293d 36b7 dabd aad0 523c
000002d0: f65d 2cbd 45f1 963d 724e aa3b d7fb 963c
000002e0: cc87 dc3d ff19 dabd 315d 01bd 1604 b0bb
000002f0: 2516 7ebd eae0 87bd 1fb7 0f3d 9253 04bd
00000300: b500 0ab7 3e9d fc3c 1a71 103c f7b9 efbd
00000310: 8249 babd 90f3 eabd 0a06 cebb f085 163c
00000320: cdde 86bd a70a 2bbd 8649 bc3d 01d8 9bbd
00000330: 612e c1bd 2c8a 8d3d 4dba f0bd 6772 15bd
00000340: ebc0 6ebc 6506 dfbd 285e 393d 2835 2bbd
00000350: 3e5d fc3c b831 bbbd 8642 0b3d d8db 19bc
00000360: 9af5 e9bd 115b 23bd 6aac 74bd 1d5c 133d
00000370: 00f2 e63d 1453 72bd c340 98bd 44f4 8dbd
00000380: 0081 82bd 584b 5abd 0c3c e7bd ac5e 20bd
00000390: 3290 393d 5172 31bc 9637 713d 9b56 8a3d
000003a0: 868d bc3d 142c 9cbd 2471 22bd d327 99bb
000003b0: 16e3 923b e297 17bb a4ee 893b 3a80 4bbd
000003c0: 9f60 bdbd d5fa 253d 409e e33d b2bd 36bd
000003d0: 87ea 6a3c ccc6 f7bc 8d70 64bd 621b 283d
000003e0: 06c9 49bd 1ac9 17bd 8652 2a3d 1244 84bd
000003f0: 5b38 163d 080b 973c 2a22 02bd e1d6 1cbd

denseblock1.layers.1.norm2.weight f4 [16]
1.0 1.0 1.0 1.0 1.0 1.0 1.0 1.0
1.0 1.0 1.0 1.0 1.0 1.0 1.0 1.0
00000000: 0000 803f 0000 803f 0000 803f 0000 803f
00000010: 0000 803f 0000 803f 0000 803f 0000 803f
00000020: 0000 803f 0000 803f 0000 803f 0000 803f
00000030: 0000 803f 0000 803f 0000 803f 0000 803f

denseblock1.layers.1.norm2.bias f4 [16]
0.0 0.0 0.0 0.0 0.0 0.0 0.0 0.0
0.0 0.0 0.0 0.0 0.0 0.0 0.0 0.0
00000000: 0000 0000 0000 0000 0000 0000 0000 0000
00000010: 0000 0000 0000 0000 0000 0000 0000 0000
00000020: 0000 0000 0000 0000 0000 0000 0000 0000
00000030: 0000 0000 0000 0000 0000 0000 0000 0000

denseblock1.layers.1.norm2.running_mean f4 [16]
0.28248885 -0.36321148 -0.35978 -0.47038925 -0.61055493 0.0021430287 0.21521968 0.056026816
0.3124843 0.11424728 -0.010645055 -0.115551114 0.0426993 0.36122042 0.09338059 -0.20243101
00000000: 61a2 903e dbf6 b9be 1635 b8be dcd6 f0be
00000010: 544d 1cbf 0e72 0c3b 8c62 5c3e 607c 653d
00000020: f1fd 9f3e 7afa e93d 9968 2ebc 10a6 ecbd
00000030: 76e5 2e3d e2f1 b83e 533e bf3d 134a 4fbe

denseblock1.layers.1.norm2.running_var f4 [16]
0.12486382 0.21958774 0.118182495 0.2646373 0.6832863 0.15346964 0.09513995 0.031264696
0.20508492 0.042081535 0.342668 0.06069465 0.04782943 0.25815734 0.04295488 0.19656834
00000000: 9ab8 ff3d 9cdb 603e aa09 f23d 8a7e 873e
00000010: daeb 2e3f 2527 1d3e bcd8 c23d 690f 003d
00000020: c801 523e b05d 2c3d 2e72 af3e f49a 783d
00000030: cbe8 433d 332d 843e 75f1 2f3d 3649 493e
